…
   [1.16019482e-02 6.56459248e-04 7.50958454e-04 ... 4.72026272e-03
    6.18905120e-04 3.69992852e-03]
   [1.15983123e-02 6.55188400e-04 7.50661769e-04 ... 4.72068973e-03
    6.18933584e-04 3.69949453e-03]
   ...
   [5.38975000e-03 6.65944128e-04 7.34516245e-04 ... 5.28513780e-03
    6.84102823e-04 3.95847019e-03]
   [5.39247086e-03 6.64434163e-04 7.34536210e-04 ... 5.28617762e-03
    6.84297062e-04 3.95867834e-03]
   [1.04371142e-02 5.48597833e-04 7.01013370e-04 ... 4.56569297e-03
    6.28095004e-04 3.67043726e-03]]]]
number of training examples = 72576
X_train shape: (72576, 3, 37, 30)
Y_train shape: (72576,)
Generator(
  (label_emb): Embedding(4, 4)
  (l4): Sequential(
    (0): SpectralNorm(
      (module): ConvTranspose2d(64, 32, kernel_size=(4, 4), stride=(2, 2), padding=(1, 1))
    )
    (1): BatchNorm2d(32, eps=1e-05, momentum=0.1, affine=True, track_running_stats=True)
    (2): ReLU()
  )
  (l1): Sequential(
    (0): SpectralNorm(
      (module): ConvTranspose2d(512, 256, kernel_size=(4, 4), stride=(1, 1))
    )
    (1): BatchNorm2d(256, eps=1e-05, momentum=0.1, affine=True, track_running_stats=True)
    (2): ReLU()
  )
  (l2): Sequential(
    (0): SpectralNorm(
      (module): ConvTranspose2d(256, 128, kernel_size=(4, 4), stride=(2, 2), padding=(1, 1))
    )
    (1): BatchNorm2d(128, eps=1e-05, momentum=0.1, affine=True, track_running_stats=True)
    (2): ReLU()
  )
  (l3): Sequential(
    (0): SpectralNorm(
      (module): ConvTranspose2d(128, 64, kernel_size=(4, 4), stride=(2, 2), padding=(1, 1))
    )
    (1): BatchNorm2d(64, eps=1e-05, momentum=0.1, affine=True, track_running_stats=True)
    (2): ReLU()
  )
  (last): Sequential(
    (0): ConvTranspose2d(32, 3, kernel_size=(4, 4), stride=(2, 2), padding=(1, 1))
    (1): Flatten(start_dim=1, end_dim=-1)
    (2): Linear(in_features=37632, out_features=3330, bias=True)
    (3): Unflatten(dim=1, unflattened_size=(3, 37, 30))
    (4): Tanh()
  )
  (attn1): Self_Attn(
    (query_conv): Conv2d(64, 8, kernel_size=(1, 1), stride=(1, 1))
    (key_conv): Conv2d(64, 8, kernel_size=(1, 1), stride=(1, 1))
    (value_conv): Conv2d(64, 64, kernel_size=(1, 1), stride=(1, 1))
    (softmax): Softmax(dim=-1)
  )
  (attn2): Self_Attn(
    (query_conv): Conv2d(32, 4, kernel_size=(1, 1), stride=(1, 1))
    (key_conv): Conv2d(32, 4, kernel_size=(1, 1), stride=(1, 1))
    (value_conv): Conv2d(32, 32, kernel_size=(1, 1), stride=(1, 1))
    (softmax): Softmax(dim=-1)
  )
)
Discriminator(
  (label_emb): Embedding(4, 4)
  (l4): Sequential(
    (0): SpectralNorm(
      (module): Conv2d(256, 512, kernel_size=(4, 4), stride=(2, 2), padding=(1, 1))
    )
    (1): LeakyReLU(negative_slope=0.1)
  )
  (l1): Sequential(
    (0): SpectralNorm(
      (module): Conv2d(12, 64, kernel_size=(4, 4), stride=(2, 2), padding=(1, 1))
    )
    (1): LeakyReLU(negative_slope=0.1)
  )
  (l2): Sequential(
    (0): SpectralNorm(
      (module): Conv2d(64, 128, kernel_size=(4, 4), stride=(2, 2), padding=(1, 1))
    )
    (1): LeakyReLU(negative_slope=0.1)
  )
  (l3): Sequential(
    (0): SpectralNorm(
      (module): Conv2d(128, 256, kernel_size=(4, 4), stride=(2, 2), padding=(1, 1))
    )
    (1): LeakyReLU(negative_slope=0.1)
  )
  (last): Sequential(
    (0): Conv2d(512, 1, kernel_size=(1, 1), stride=(1, 1))
  )
  (attn1): Self_Attn(
    (query_conv): Conv2d(256, 32, kernel_size=(1, 1), stride=(1, 1))
    (key_conv): Conv2d(256, 32, kernel_size=(1, 1), stride=(1, 1))
    (value_conv): Conv2d(256, 256, kernel_size=(1, 1), stride=(1, 1))
    (softmax): Softmax(dim=-1)
  )
  (attn2): Self_Attn(
    (query_conv): Conv2d(512, 64, kernel_size=(1, 1), stride=(1, 1))
    (key_conv): Conv2d(512, 64, kernel_size=(1, 1), stride=(1, 1))
    (value_conv): Conv2d(512, 512, kernel_size=(1, 1), stride=(1, 1))
    (softmax): Softmax(dim=-1)
  )
)
Elapsed [0:00:01.590228], G_step [10/1000000], D_step[10/1000000], d_out_real: -0.0280,  ave_gamma_l3: 0.0002, ave_gamma_l4: 0.0001
Elapsed [0:00:02.522309], G_step [20/1000000], D_step[20/1000000], d_out_real: 0.0155,  ave_gamma_l3: -0.0003, ave_gamma_l4: -0.0005
